…
Starting to load images via multiple imreaders
dataset [gopro(train)] created
The number of training images = 8000
Starting to load images via multiple imreaders
dataset [gopro(val)] created
The number of val images = 11
Noise Style: gauss_range, Noise Params: [0.0196078431372549, 0.19607843137254902]
model [SelfIRModel] was created
---------- Networks initialized -------------
DataParallel(
  (module): TUNET(
    (mean_head): MeanShift(3, 3, kernel_size=(1, 1), stride=(1, 1), groups=3)
    (mean_tail): MeanShift(3, 3, kernel_size=(1, 1), stride=(1, 1), groups=3)
    (EB0): EncodeBlock(
      (conv): Conv2d(3, 48, kernel_size=(3, 3), stride=(1, 1), padding=(1, 1))
      (nonlinear): LeakyReLU(negative_slope=0.1)
      (MaxPool): MaxPool2d(kernel_size=2, stride=2, padding=0, dilation=1, ceil_mode=False)
    )
    (EB1): EncodeBlock(
      (conv): Conv2d(48, 48, kernel_size=(3, 3), stride=(1, 1), padding=(1, 1))
      (nonlinear): LeakyReLU(negative_slope=0.1)
      (MaxPool): MaxPool2d(kernel_size=2, stride=2, padding=0, dilation=1, ceil_mode=False)
    )
    (EB2): EncodeBlock(
      (conv): Conv2d(48, 48, kernel_size=(3, 3), stride=(1, 1), padding=(1, 1))
      (nonlinear): LeakyReLU(negative_slope=0.1)
      (MaxPool): MaxPool2d(kernel_size=2, stride=2, padding=0, dilation=1, ceil_mode=False)
    )
    (EB3): EncodeBlock(
      (conv): Conv2d(48, 48, kernel_size=(3, 3), stride=(1, 1), padding=(1, 1))
      (nonlinear): LeakyReLU(negative_slope=0.1)
      (MaxPool): MaxPool2d(kernel_size=2, stride=2, padding=0, dilation=1, ceil_mode=False)
    )
    (EB4): EncodeBlock(
      (conv): Conv2d(48, 48, kernel_size=(3, 3), stride=(1, 1), padding=(1, 1))
      (nonlinear): LeakyReLU(negative_slope=0.1)
      (MaxPool): MaxPool2d(kernel_size=2, stride=2, padding=0, dilation=1, ceil_mode=False)
    )
    (EB5): EncodeBlock(
      (conv): Conv2d(48, 48, kernel_size=(3, 3), stride=(1, 1), padding=(1, 1))
      (nonlinear): LeakyReLU(negative_slope=0.1)
      (MaxPool): MaxPool2d(kernel_size=2, stride=2, padding=0, dilation=1, ceil_mode=False)
    )
    (EB6): EncodeBlock(
      (conv): Conv2d(48, 48, kernel_size=(3, 3), stride=(1, 1), padding=(1, 1))
      (nonlinear): LeakyReLU(negative_slope=0.1)
      (MaxPool): MaxPool2d(kernel_size=2, stride=2, padding=0, dilation=1, ceil_mode=False)
    )
    (EB0_2): EncodeBlock(
      (conv): Conv2d(3, 48, kernel_size=(3, 3), stride=(1, 1), padding=(1, 1))
      (nonlinear): LeakyReLU(negative_slope=0.1)
      (MaxPool): MaxPool2d(kernel_size=2, stride=2, padding=0, dilation=1, ceil_mode=False)
    )
    (EB1_2): EncodeBlock(
      (conv): Conv2d(48, 48, kernel_size=(3, 3), stride=(1, 1), padding=(1, 1))
      (nonlinear): LeakyReLU(negative_slope=0.1)
      (MaxPool): MaxPool2d(kernel_size=2, stride=2, padding=0, dilation=1, ceil_mode=False)
    )
    (EB2_2): EncodeBlock(
      (conv): Conv2d(48, 48, kernel_size=(3, 3), stride=(1, 1), padding=(1, 1))
      (nonlinear): LeakyReLU(negative_slope=0.1)
      (MaxPool): MaxPool2d(kernel_size=2, stride=2, padding=0, dilation=1, ceil_mode=False)
    )
    (EB3_2): EncodeBlock(
      (conv): Conv2d(48, 48, kernel_size=(3, 3), stride=(1, 1), padding=(1, 1))
      (nonlinear): LeakyReLU(negative_slope=0.1)
      (MaxPool): MaxPool2d(kernel_size=2, stride=2, padding=0, dilation=1, ceil_mode=False)
    )
    (EB4_2): EncodeBlock(
      (conv): Conv2d(48, 48, kernel_size=(3, 3), stride=(1, 1), padding=(1, 1))
      (nonlinear): LeakyReLU(negative_slope=0.1)
      (MaxPool): MaxPool2d(kernel_size=2, stride=2, padding=0, dilation=1, ceil_mode=False)
    )
    (EB5_2): EncodeBlock(
      (conv): Conv2d(48, 48, kernel_size=(3, 3), stride=(1, 1), padding=(1, 1))
      (nonlinear): LeakyReLU(negative_slope=0.1)
      (MaxPool): MaxPool2d(kernel_size=2, stride=2, padding=0, dilation=1, ceil_mode=False)
    )
    (EB6_2): EncodeBlock(
      (conv): Conv2d(48, 48, kernel_size=(3, 3), stride=(1, 1), padding=(1, 1))
      (nonlinear): LeakyReLU(negative_slope=0.1)
      (MaxPool): MaxPool2d(kernel_size=2, stride=2, padding=0, dilation=1, ceil_mode=False)
    )
    (DB1): DecodeBlock(
      (conv1): Conv2d(192, 96, kernel_size=(3, 3), stride=(1, 1), padding=(1, 1))
      (conv2): Conv2d(96, 48, kernel_size=(3, 3), stride=(1, 1), padding=(1, 1))
      (nonlinear1): LeakyReLU(negative_slope=0.1)
      (nonlinear2): LeakyReLU(negative_slope=0.1)
    )
    (DB2): DecodeBlock(
      (conv1): Conv2d(144, 96, kernel_size=(3, 3), stride=(1, 1), padding=(1, 1))
      (conv2): Conv2d(96, 48, kernel_size=(3, 3), stride=(1, 1), padding=(1, 1))
      (nonlinear1): LeakyReLU(negative_slope=0.1)
      (nonlinear2): LeakyReLU(negative_slope=0.1)
    )
    (DB3): DecodeBlock(
      (conv1): Conv2d(144, 96, kernel_size=(3, 3), stride=(1, 1), padding=(1, 1))
      (conv2): Conv2d(96, 48, kernel_size=(3, 3), stride=(1, 1), padding=(1, 1))
      (nonlinear1): LeakyReLU(negative_slope=0.1)
      (nonlinear2): LeakyReLU(negative_slope=0.1)
    )
    (DB4): DecodeBlock(
      (conv1): Conv2d(144, 96, kernel_size=(3, 3), stride=(1, 1), padding=(1, 1))
      (conv2): Conv2d(96, 96, kernel_size=(3, 3), stride=(1, 1), padding=(1, 1))
      (nonlinear1): LeakyReLU(negative_slope=0.1)
      (nonlinear2): LeakyReLU(negative_slope=0.1)
    )
    (DB5): DecodeBlock(
      (conv1): Conv2d(102, 64, kernel_size=(3, 3), stride=(1, 1), padding=(1, 1))
      (conv2): Conv2d(64, 32, kernel_size=(3, 3), stride=(1, 1), padding=(1, 1))
      (conv3): Conv2d(32, 3, kernel_size=(3, 3), stride=(1, 1), padding=(1, 1))
      (nonlinear1): LeakyReLU(negative_slope=0.1)
      (nonlinear2): LeakyReLU(negative_slope=0.1)
    )
    (Upsample): Upsample(scale_factor=2.0, mode='bilinear')
  )
)
[Network UNET] Total number of parameters : 1.077 M
-----------------------------------------------
(epoch: 1, iters: 100, time: 8.305, data: 0.606) UNET_MSE: 4.5392e-03 UNET_REG: 8.7763e-03 UNET_Blur: 0.0000e+00 Total: 1.3316e-02 
…
